back/save/decoder-100.pt (torch_old, 972396 bytes, 11 tensors)

weight f4 [3, 40]
-0.046150763 0.02265816 -0.075279936 0.038708538 0.06697113 0.06380758 -0.049672015 0.08578634
0.04010941 -0.09319714 -0.007208134 0.012250945 -0.06493398 0.03214308 -0.051805478 -0.02427903
-0.041734487 -0.070616424 0.019832095 0.0638839 -0.08371802 0.0005342688 -0.0886078 -0.0857709
-0.032587934 -0.062035553 0.07626022 0.030658942 -0.094900146 0.06833823 -0.0043457565 -0.062249046
0.11231334 0.058500767 0.048801564 -0.025771443 -0.0698394 -0.04987138 -0.019881168 -0.056214
-0.07751084 0.08688415 0.070851505 -0.103881225 -0.07069204 -0.039916947 -0.015045581 0.00078034133
-0.09054066 0.06327538 0.005924252 -0.012822084 -0.031142462 -0.067862175 0.0039806874 0.09284042
0.052052807 0.03908687 0.025979869 -0.030690022 0.057800356 -0.049305495 -0.082618766 0.038329855
0.070094064 0.10317694 -0.058737498 -0.075820304 -0.100929596 -0.017381754 0.10605922 0.046545878
0.10647214 -0.071642205 0.06886652 -0.0911558 0.03562704 0.031632826 -0.048067812 -0.044040862
-0.030745266 -0.04830272 -0.061623108 -0.09348198 0.061720986 0.036318764 -0.07538324 0.024280084
0.02599232 -0.029355152 -0.06572929 -0.047933027 -0.112547435 -0.04841386 -0.10665841 -0.030503318
-0.073781736 -0.100982316 0.021603875 -0.007943947 -0.097266465 -0.047277257 -0.063342266 -0.081863284
0.035699833 0.09868102 0.07046521 0.05931953 0.04471827 -0.07943529 0.06804164 -0.060779285
0.123816095 0.10912945 0.044524655 -0.0885029 -0.045432232 -0.061358474 0.021420924 -0.077801965
00000000: 9508 3dbd 9b9d b93c 5e2c 9abd d88c 1e3d
00000010: 2928 893d 8cad 823d e274 4bbd c0b0 af3d
00000020: c449 243d 24de bebd 3632 ecbb 30b8 483c
00000030: 1bfc 84bd 76a8 033d fb31 54bd d1e4 c6bc
00000040: c8f1 2abd 589f 90bd eb76 a23c 90d5 823d
00000050: 5a74 abbd 2c0e 0c3a 0278 b5bd a7a8 afbd
00000060: ed7a 05bd fe18 7ebd 512e 9c3d 7628 fb3c
00000070: 025b c2bd eaf4 8b3d d966 8ebb dbf8 7ebd
00000080: 8904 e63d 809e 6f3d 26e4 473d a21e d3bc
00000090: f607 8fbd ef45 4cbd d5dd a2bc a740 66bd
000000a0: 01be 9ebd 51f0 b13d 981a 913d aebf d4bd
000000b0: fdc6 90bd f47f 23bd be81 76bc d28f 4c3a
000000c0: 626d b9bd 8696 813d 3a20 c23b b813 52bc
000000d0: 7a1e ffbc 53fb 8abd 6d70 823b 1e23 be3d
000000e0: 5335 553d 8e19 203d bcd3 d43c a469 fbbc
000000f0: 11c0 6c3d 8ff4 49bd 0734 a9bd c4ff 1c3d
00000100: 7a8d 8f3d 6e4e d33d bb96 70bd ad47 9bbd
00000110: 2db4 cebd 2e64 8ebc 9435 d93d e4a6 3e3d
00000120: 110e da3d 26b9 92bd e409 8d3d e4af babd
00000130: a9ed 113d 6c91 013d c1e2 44bd 3164 34bd
00000140: 7fdd fbbc 13d9 45bd 8368 7cbd 7b73 bfbd
00000150: 25cf 7c3d fcc2 143d 8762 9abd 07e7 c63c
00000160: d9ed d43c 377a f0bc 149d 86bd 6c55 44bd
00000170: 457f e6bd 9d4d 46bd b96f dabd 18e2 f9bc
00000180: e11a 97bd d1cf cebd 9cfa b03c 5427 02bc
00000190: a433 c7bd cca5 41bd 97b9 81bd f0a7 a7bd
000001a0: fd39 123d 4619 ca3d 1050 903d 09f9 723d
000001b0: 812a 373d f8ae a2bd 6a59 8b3d b3f3 78bd
000001c0: 4b93 fd3d 437f df3d 7c5f 363d 0241 b5bd
000001d0: 2617 3abd 0653 7bbd ef7a af3c a356 9fbd

weight_ih_l0 f4 [512, 296]
0.06216182 -0.070154406 0.016897267 0.06439563 -0.032700956 0.027443668 0.03602336 0.03050444
-0.015277554 0.05484557 -0.017709773 0.06977401 0.016944446 0.025913713 0.014622838 -0.074537806
-0.033253264 -0.05620909 0.07988836 0.080045335 -0.07537468 0.017438976 -0.12263587 0.0462204
0.06442776 -0.01649874 0.08931927 0.024437174 -0.059740536 0.018978257 0.06325055 -0.02050566
0.11176422 -0.01720985 0.11850795 -0.09325001 -0.108649395 -0.07183519 -0.099211805 -0.07154689
0.02242673 0.05871 -0.06558725 -0.04617707 0.020697316 0.011201154 -0.028906224 -0.06379304
-0.024648467 -0.022720678 -0.038459223 0.07281425 0.12920156 0.06526826 -0.0073369173 -0.11551719
-0.07176871 -0.11072946 -0.004071793 -0.05246735 -0.12396625 0.10042789 0.0671742 -0.09835001
0.03803753 -0.01788935 0.038176086 -0.024664244 0.0028340362 0.0012014989 0.052452188 0.036242593
0.081019215 -0.00941955 0.10614289 0.041806106 -0.06642854 -0.012859184 0.2632002 -0.008553664
0.08538419 0.024301447 0.019481556 -0.105972506 0.13022797 -0.06034724 0.069118604 -0.16051356
0.012885283 0.047964945 -0.058299985 -0.06330436 -0.23636954 -0.12302012 0.0814058 0.19522005
-0.077836774 0.05517541 -0.008908251 -0.022591967 0.02307884 -0.0047628884 0.074526675 -0.14932021
-0.05173067 0.006674893 0.050692353 0.094156116 0.05239484 0.10253979 -0.009533648 -0.018737493
-0.072306596 -0.15608697 0.06277026 -0.0026451547 0.0055437465 0.004263071 0.12060089 -0.048555624
-0.04699972 -0.05369703 0.021027252 -0.0769895 0.07880603 -0.07639517 -0.08037754 -0.23916294
0.17734796 -0.028991003 0.032108083 -0.052211165 -0.04706077 -0.007749949 -0.12730943 0.020512298
-0.05556104 0.020472718 -0.081671566 0.053368017 -0.027044222 0.0621508 -0.11658532 -0.096265815
-0.07751677 0.0026283276 0.20301831 -0.025124475 0.06630241 0.078304715 0.06085454 -0.0050742733
-0.014344432 -0.01726203 -0.038337108 0.06800802 0.013382346 -0.12275797 -0.12447829 -0.12630703
0.0089644175 0.09520794 -0.028362451 0.07669228 0.026837071 -0.13181499 -0.11874881 -0.017220255
0.06058506 -0.08348402 0.08805916 -0.05361058 0.043587837 -0.07132802 -0.004847158 0.06385457
-0.1293227 0.14704156 -0.034017093 0.06854671 0.034554664 -0.045528654 0.02426881 -0.072983116
0.04281631 -0.030749874 0.08630853 -0.06063615 0.00045713002 -0.059273105 0.15536466 0.020757064
0.08909456 -0.07717485 0.07287269 0.040825322 -0.09248587 0.007120588 0.044342842 0.11167153
0.036056116 0.018942866 0.093345724 0.1191148 -0.01472134 -0.0886715 -0.1363864 -0.04686954
-0.0053705387 0.116592966 -0.051919214 0.04942832 0.12541083 0.051062115 0.018299421 0.06454527
0.049293038 0.052985106 -0.09801015 -0.096040025 -0.11388642 0.040697817 0.13760464 -0.04982802
-0.008908422 0.053282022 -0.066639386 -0.044284023 -0.013707002 -0.0048406413 -0.065652445 -0.05338383
0.00050024816 0.066638954 0.086431235 0.049289253 0.08588721 -0.065070726 0.036256287 0.008747257
-0.04760328 -0.14699627 0.1786982 -0.026605852 -0.06105065 0.13605368 0.107684046 0.037616964
-0.024312926 0.06181809 0.069676 -0.028357126 -0.0033630854 -0.049330212 -0.042900365 -0.19464926
00000000: 649d 7e3d 1dad 8fbd 236c 8a3c dbe1 833d
00000010: 70f1 05bd 8bd1 e03c 3b8d 133d 73e4 f93c
00000020: b54e 7abc c0a5 603d 1614 91bc ade5 8e3d
00000030: 14cf 8a3c ff48 d43c a194 6f3c 47a7 98bd
00000040: 9334 08bd 813b 66bd 829c a33d cfee a33d
00000050: 0a5e 9abd 2fdc 8e3c 8428 fbbd 9a51 3d3d
00000060: b4f2 833d 5e28 87bc 05ed b63d 7830 c83c
00000070: 7eb2 74bd 4a78 9b3c 8189 813d 7cfb a7bc
00000080: a4e4 e43d acfb 8cbc 4cb4 f23d dcf9 bebd
00000090: 9383 debd 541e 93bd 8f2f cbbd 2d87 92bd
000000a0: 43b8 b73c e679 703d 9c52 86bd 2b24 3dbd
000000b0: 6b8d a93c 0c85 373c bfcc ecbc eda5 82bd
000000c0: 95eb c9bc b720 babc 6b87 1dbd a31f 953d
000000d0: 6a4d 043e 5eab 853d 866a f0bb 4794 ecbd
000000e0: 79fb 92bd 21c6 e2bd ad6c 85bb 01e8 56bd
000000f0: 04e2 fdbd 23ad cd3d a192 893d bb6b c9bd
00000100: 3ecd 1b3d b08c 92bc 875e 1c3d ab0c cabc
00000110: 3dbb 393b 9d7b 9d3a 1bd8 563d 1d73 143d
00000120: 67ed a53d 7554 1abc 7261 d93d e13c 2b3d
00000130: b00b 88bd 54af 52bc 2dc2 863e ab24 0cbc
00000140: e8dd ae3d d413 c73c c997 9f3c 1d08 d9bd
00000150: 7b5a 053e ab2e 77bd 0e8e 8d3d ab5d 24be
00000160: cb1c 533c e476 443d f7cb 6ebd b7a5 81bd
00000170: db0a 72be f9f1 fbbd 16b8 a63d c4e7 473e
00000180: e368 9fbd 9cff 613d eaf3 11bc ca12 b9bc
00000190: d60f bd3c 0112 9cbb 71a1 983d 66e7 18be
000001a0: 8ae3 53bd 10b9 da3b c9a2 4f3d ecd4 c03d
000001b0: f99b 563d 6200 d23d 0533 1cbc 5f7f 99bc
000001c0: 7b15 94bd 43d5 1fbe b28d 803d 555a 2dbb
000001d0: 51a8 b53b 3bb1 8b3b 99fd f63d 43e2 46bd
000001e0: c782 40bd 6bf1 5bbd 5841 ac3c acac 9dbd
000001f0: 0e65 a13d 1275 9cbd fb9c a4bd 21e7 74be
00000200: b49a 353e 8a7e edbc c483 033d 60db 55bd
00000210: cbc2 40bd 49f3 fdbb 675d 02be 6809 a83c
00000220: f993 63bd 67b6 a73c 6c43 a7bd 6c98 5a3d
00000230: d88b ddbc d691 7e3d 49c4 eebd 0327 c5bd
00000240: 1dc1 9ebd 0540 2c3b 08e4 4f3e d8d1 cdbc
00000250: 8fc9 873d 395e a03d 9c42 793d 1746 a6bb
00000260: e904 6bbc 1a69 8dbc 5f07 1dbd ca47 8b3d
00000270: a141 5b3c 8868 fbbd 79ee febd a156 01be
00000280: 7edf 123c 61fc c23d 5f58 e8bc d810 9d3d
00000290: 6bd9 db3c 82fa 06be 9332 f3bd 7e11 8dbc
000002a0: 0a28 783d abf9 aabd 5c58 b43d c496 5bbd
000002b0: 2989 323d 6d14 92bd e9d4 9ebb 2fc6 823d
000002c0: 2b6d 04be 1092 163e 8255 0bbd 3862 8c3d
000002d0: 3189 0d3d 417c 3abd 62cf c63c 2c78 95bd
000002e0: 2860 2f3d 29e7 fbbc 87c2 b03d 9d5d 78bd
000002f0: f4aa ef39 5bc8 72bd ea17 1f3e b80a aa3c
00000300: 3577 b63d d90d 9ebd 473e 953d 7438 273d
00000310: 3b69 bdbd d253 e93b d7a0 353d 0bb4 e43d
00000320: 94af 133d 122e 9b3c 0b2c bf3d 76f2 f33d
00000330: c631 71bc 6799 b5bd e0a8 0bbe 46fa 3fbd
00000340: 58fb afbb 4bc8 ee3d 3ea9 54bd 5a75 4a3d
00000350: b26b 003e 8226 513d abe8 953c 4f30 843d
00000360: 7fe7 493d e906 593d 8cb9 c8bd a2b0 c4bd
00000370: 493d e9bd c1b2 263d 3be8 0c3e 7718 4cbd
00000380: a1f4 11bc 403e 5a3d 3b7a 88bd 2a63 35bd
00000390: 5593 60bc 3e9e 9ebb ca74 86bd 01a9 5abd
000003a0: 1623 033a 017a 883d dc02 b13d 87e3 493d
000003b0: a2e5 af3d cd43 85bd 7981 143d a850 0f3c
000003c0: a8fb 42bd 3186 16be a9fc 363e 84f4 d9bc
000003d0: 3f10 7abd a851 0b3e 7489 dc3d 3f14 1a3d
000003e0: e72b c7bc f734 7d3d 4ab2 8e3d 344d e8bc
000003f0: 3667 5cbb 7a0e 4abd 4bb8 2fbd 2352 47be

weight_hh_l0 f4 [512, 128]
-0.04188347 -0.07099503 0.008945691 0.025604568 -0.05944385 -0.11248639 -0.094935276 -0.053491984
0.076166734 0.006534187 -0.019141948 -0.040640414 -0.012845096 0.007533413 -0.02477224 -0.025381135
0.11853352 -0.06408053 0.0054820296 0.071884766 0.07556098 -0.07128594 -0.053329382 0.046415254
-0.08204008 0.03616333 -0.037557777 -0.0011146477 -0.08844478 0.092181794 0.03787251 0.08326471
0.039045047 0.04147176 0.026312264 0.022122074 -0.006433924 0.028967014 -0.018727101 -0.03351073
0.032500234 0.07528346 0.068612374 0.019240694 0.090758406 -0.02764402 -0.00010745824 0.008206842
0.03856213 -0.06511663 -0.09951647 0.045323674 0.0051710266 -0.001690973 -0.0152378 -0.04434298
-0.016874019 0.05705614 -0.04144391 -0.02121322 0.014280108 0.01624056 -0.022851516 0.063988276
-0.05418563 -0.019866392 0.058854025 0.103945166 -0.04113079 -0.013136528 0.026647707 -0.038479894
0.02406055 -0.033974476 0.04674428 0.0574467 -0.0058356654 0.066805154 -0.035422705 0.016602635
-0.015273904 0.018081322 -0.0248365 -0.037163697 -0.03079326 -0.030084599 0.00982412 0.047260188
-0.05353711 0.08349235 -0.0406934 0.020906644 -0.0112537 -0.07929018 0.04521311 -0.02710714
0.00015909028 -0.076429375 0.011080568 -0.0014864835 0.07157116 0.038641553 -0.018591667 0.10303025
-0.05395985 -0.07850956 0.02826734 0.05692137 0.08168051 -0.07472309 0.03171618 -0.0030922082
-0.03665086 0.053486254 -0.034802653 -0.017318962 0.09624904 -0.0024033797 0.09441208 -0.056550715
-0.074948415 0.019672427 -0.10149763 0.069901004 -0.097695924 0.024706654 -0.037189536 -0.01447079
0.08691362 -0.06062225 0.0036507144 0.011372521 -0.0025473319 -0.100731015 -0.124690935 0.00053047005
0.014348142 0.035386745 0.03618339 -0.039635208 0.10404455 0.070037134 -0.07224801 0.09162049
0.10939785 -0.058234885 -0.018819204 -0.061060157 0.093504325 -0.05637835 0.02357459 0.09420015
0.02395975 0.0045852675 -0.016863704 -0.1205142 -0.11615803 0.071307704 0.041036416 0.005919112
0.13080323 -0.022661747 0.020612547 0.025454002 -0.020337569 0.005648697 -0.08466478 0.05388192
0.2704161 0.012136792 0.105565384 0.034333423 0.092603944 0.0029263804 -0.0504207 0.41804704
-0.03654592 0.04351163 -0.074303396 -0.047321253 0.030471422 -0.024038693 -0.3539108 -0.0656197
-0.005735682 0.0992071 0.053098127 -0.0038253285 -0.018074207 -0.0727162 0.0155158015 -0.038973145
-0.030714968 0.017600292 -0.0845651 -0.001301342 0.070032015 -0.019181324 0.046958163 -0.0748401
-0.046227578 -0.026729371 0.026464505 -0.022281175 0.0032242753 -0.026727438 0.05244726 -0.02617263
0.040847406 0.020946797 -0.025867175 0.08668544 0.008668334 -0.08077172 -0.021078316 0.12713306
-0.060304783 0.08202364 0.01991317 -0.004974026 0.08830271 -0.11188492 -0.10286865 0.083268344
0.06768015 0.046708673 -0.035404023 -0.027946552 0.097980075 -0.08249812 0.008538486 -0.009064189
0.12339197 -0.2401437 0.07014911 -0.029186783 -0.032385077 -0.04604624 0.07699776 -0.071976826
-0.044016723 0.029294519 -0.013117394 -0.088590376 0.07698045 -0.09290792 0.06872655 -0.037091434
-0.06660587 0.0022960217 0.06832718 0.07088233 -0.05743825 -0.0016614461 0.04514361 0.0038761077
00000000: 008e 2bbd d865 91bd f390 123c acc0 d13c
00000010: 657b 73bd 445f e6bd 6d6d c2bd 691a 5bbd
00000020: 4efd 9b3d bc1c d63b 93cf 9cbc 9076 26bd
00000030: 3d74 52bc d9da f63b 27ef cabc 19ec cfbc
00000040: b4c1 f23d a73c 83bd 99a2 b33b 5238 933d
00000050: b7bf 9a3d 5dfe 91bd e96f 5abd ec1d 3e3d
00000060: a104 a8bd 0020 143d 2fd6 19bd 5f19 92ba
00000070: 8922 b5bd cfc9 bc3d 3420 1b3d b086 aa3d
00000080: b3ed 1f3d 4bde 293d d18c d73c 5a39 b53c
00000090: abd3 d2bb 3b4c ed3c 9469 99bc 8c42 09bd
000000a0: f71e 053d 372e 9a3d a584 8c3d a99e 9d3c
000000b0: 8bdf b93d b675 e2bc 345b e1b8 fd75 063c
000000c0: 53f3 1d3d de5b 85bd 4bcf cbbd 51a5 393d
000000d0: b771 a93b a3a3 ddba f7a7 79bc fca0 35bd
000000e0: 623b 8abc b3b3 693d 17c1 29bd 59c7 adbc
000000f0: 1df7 693c ec0a 853c 1a33 bbbc 490c 833d
00000100: c0f1 5dbd d8be a2bc eb10 713d 34e1 d43d
00000110: c278 28bd 983a 57bc 4b4c da3c 189d 1dbd
00000120: a11a c53c d228 0bbd ee76 3f3d 3b4d 6b3d
00000130: 1c39 bfbb 24d1 883d 6617 11bd 4002 883c
00000140: 663f 7abc 481f 943c ea75 cbbc f638 18bd
00000150: 2642 fcbc fa73 f6bc 59f5 203c e693 413d
00000160: bb49 5bbd 0afe aa3d 1fae 26bd 6944 ab3c
00000170: 7061 38bc e462 a2bd 6231 393d cb0f debc
00000180: 79d1 2639 0187 9cbd 458b 353c 1cd6 c2ba
00000190: e693 923d 9b46 1e3d 8d4d 98bc 8601 d33d
000001a0: 0105 5dbd 9fc9 a0bd e990 e73c 6226 693d
000001b0: 1c48 a73d 6b08 99bd d3e8 013d a5a6 4abb
000001c0: 361f 16bd 6714 5b3d 3a8d 0ebd 7fe0 8dbc
000001d0: 371e c53d 0582 1dbb 1f5b c13d b9a1 67bd
000001e0: 8e7e 99bd 1228 a13c fddd cfbd 4228 8f3d
000001f0: cd14 c8bd 9c65 ca3c 0e54 18bd e416 6dbc
00000200: c5ff b13d 094f 78bd d340 6f3b cf53 3a3c
00000210: 23f1 26bb 104c cebd f65d ffbd 3e0f 0b3a
00000220: 7814 6b3c b1f1 103d 0935 143d 8758 22bd
00000230: 4f15 d53d a16f 8f3d c4f6 93bd 86a3 bb3d
00000240: fb0b e03d b487 6ebd bb2a 9abc 371a 7abd
00000250: 327f bf3d fcec 66bd 801f c13c 02ec c03d
00000260: 3d47 c43c 0340 963b c025 8abc 26d0 f6bd
00000270: 43e4 edbd c609 923d cd15 283d 1cf5 c13b
00000280: 48f1 053e 21a5 b9bc a5db a83c e984 d03c
00000290: f99a a6bc b418 b93b ba64 adbd 4ab3 5c3d
000002a0: fb73 8a3e 65d9 463c aa32 d83d 34a1 0c3d
000002b0: 23a7 bd3d 84c8 3f3b f085 4ebd 430a d63e
000002c0: 2db1 15bd 4039 323d 612c 98bd eed3 41bd
000002d0: 349f f93c cbec c4bc cc33 b5be 9f63 86bd
000002e0: 63f2 bbbb 182d cb3d 6c7d 593d 5db2 7abb
000002f0: 5c10 94bc 3bec 94bd fd35 7e3c 4ea2 1fbd
00000300: f59d fbbc 7d2e 903c 7830 adbd cb91 aaba
00000310: f26c 8f3d 2722 9dbc 3457 403d c445 99bd
00000320: 2159 3dbd 8ef7 dabc 17cc d83c 0387 b6bc
00000330: 5d4e 533b 80f3 dabc f0d2 563d fc67 d6bc
00000340: 9c4f 273d 9e98 ab3c 66e7 d3bc 2388 b13d
00000350: a105 0e3c a56b a5bd 6fac acbc 2b2f 023e
00000360: 2602 77bd 03fc a73d f220 a33c 27fd a2bb
00000370: 0dd8 b43d ec23 e5bd ccac d2bd 9888 aa3d
00000380: e49b 8a3d 9851 3f3d cf03 11bd 2bf0 e4bc
00000390: c7a9 c83d c6f4 a8bd 02e5 0b3c f781 14bc
000003a0: eeb4 fc3d 3be8 75be 56aa 8f3d 1f19 efbc
000003b0: 37a6 04bd fb9a 3cbd 00b1 9d3d 9668 93bd
000003c0: e14a 34bd 0ffb ef3c 57ea 56bc df6e b5bd
000003d0: eda7 9d3d 8246 bebd 81c0 8c3d 30ed 17bd
000003e0: a968 88bd da78 163b 1fef 8b3d c12a 913d
000003f0: 5f44 6bbd e1c4 d9ba 82e8 383d 4c06 7e3b

bias_ih_l0 f4 [512]
0.07249525 0.08257164 0.07703707 0.09444837 0.08274067 -0.017217575 0.0008756384 0.060427845
0.031815954 0.035128366 0.012102567 0.03258602 0.04149541 0.08404569 0.0013955672 0.06102635
-0.02107475 -0.03131265 -0.01508568 -0.04317846 0.063251555 0.09592018 0.08018584 0.08929404
0.104386695 0.024276974 0.090849385 0.02519657 0.06221206 0.07272005 -0.05374326 0.12215227
0.09076834 0.035342116 0.04552743 0.1192907 0.0044210204 -0.027865611 0.035744753 -0.0020205814
0.04660175 -0.06077573 0.086247556 0.020041678 -0.0401748 0.026648276 0.06053379 0.105812915
-0.0009919516 0.09283501 -0.00095858873 0.076660946 -0.0036351772 -0.048609693 0.07706468 -0.03568604
0.02685894 0.035083726 0.059314106 0.06847853 0.12710088 -0.056323778 0.003954053 0.016645372
0.01674903 0.06690863 0.08290027 0.07596964 0.11238074 0.011657098 0.053322073 0.0837734
0.09327919 0.10238731 0.01719278 0.027416479 0.05643349 0.050884888 0.025680397 -0.039898727
0.063046336 0.14644764 0.11651743 0.04030947 0.07538936 0.0067685507 0.011296319 0.09630484
0.010620285 -0.006043156 0.096970454 0.11149241 0.07566307 0.10573266 -0.010253053 0.03574716
0.0027274094 -0.003168674 0.010171913 -0.055856325 -0.042591702 -0.0011838773 -0.02324128 -0.040957745
0.062498935 0.07853702 0.06502811 -0.024671437 0.066108346 0.100700416 -0.03257543 -0.08229956
0.11652521 0.103197746 -0.018626256 -0.023181526 0.022230573 -0.03991144 0.094968304 -0.059457466
-0.04589823 0.08608925 0.11793439 0.058891073 -0.031019567 -0.09220477 0.087936044 0.021394862
-0.050582863 0.039862532 -0.006187702 0.052218687 0.100150675 0.039634887 0.027291503 0.02698958
-0.01173014 -0.007586143 0.06566108 0.05973837 0.0129341725 0.06749525 -0.071029 0.06243765
0.007953351 -0.021797469 0.032969583 0.0943744 0.0820635 -0.030427642 -0.011240171 -0.011012565
-0.0063852756 -0.046973646 0.007178258 5.7503497e-05 0.012011454 0.015798347 0.034742575 -0.0076095476
0.0707003 0.0753548 0.05852898 0.0055153104 0.06919211 0.0073158317 0.069279544 -0.084464155
-0.092244186 0.0053879065 -0.05704923 0.07622893 0.041909803 0.034569174 0.038171884 0.07677358
0.0404925 -0.04493121 0.061592285 0.04532161 0.075694785 -0.010853605 0.07515872 0.07645547
0.037406895 0.01299222 0.099346064 0.058592096 0.057930633 -0.069109246 0.06136412 0.017781248
-0.024339762 0.046123426 0.041005693 0.008421435 0.036835622 -0.062967904 -0.00029394432 -0.031324793
0.104799725 0.0065739434 -0.03750928 0.01760118 0.0050941724 0.08325883 0.010041085 0.019594785
-0.023445329 -0.024969585 0.08889871 0.03989222 0.095339745 0.034577027 0.021984018 0.016015211
-0.05943261 0.10699618 0.07518422 0.070444085 0.029982565 0.029401034 0.05306763 0.009015741
-0.0627948 0.07275382 0.030533914 0.023808785 0.0088550225 -0.04794977 0.06515743 0.057364184
-0.0427477 0.0062418347 -0.06277321 -0.039438114 -0.040591393 -0.017249478 -0.011531777 -0.058690563
0.085562125 -0.059753466 -0.018541062 0.10690101 -0.025810335 0.038207166 -0.037855368 -0.0062898602
-0.0061417455 0.06334638 0.0049476717 0.062378656 -0.036692984 0.07027012 0.05917276 0.07854637
00000000: 6478 943d 521b a93d 9dc5 9d3d 266e c13d
00000010: f173 a93d df0b 8dbc 198b 653a 3083 773d
00000020: 7251 023d c3e2 0f3d d849 463c eb78 053d
00000030: 17f7 293d 2620 ac3d 77eb b63a c4f6 793d
00000040: f4a4 acbc b141 00bd ee29 77bc e6db 30bd
00000050: 088a 813d cd71 c43d 7938 a43d cbdf b63d
00000060: b1c8 d53d 81e0 c63c 3e0f ba3d 0a69 ce3c
00000070: 13d2 7e3d 40ee 943d e521 5cbd f82a fa3d
00000080: c0e4 b93d e5c2 103d f87a 3a3d af4e f43d
00000090: 35de 903b 6c46 e4bc 1769 123d bb6b 04bb
000000a0: 7ae1 3e3d f9ef 78bd 8fa2 b03d 722e a43c
000000b0: 558e 24bd 7c4d da3c 48f2 773d 71b4 d83d
000000c0: 5f04 82ba 4820 be3d cd49 7bba 6a00 9d3d
000000d0: 273c 6ebb f51a 47bd 16d4 9d3d 862b 12bd
000000e0: 4807 dc3c f4b3 0f3d 59f3 723d 793e 8c3d
000000f0: bc26 023e c3b3 66bd 0091 813b e05b 883c
00000100: 4335 893c 6407 893d 9ec7 a93d f895 9b3d
00000110: e027 e63d 6afd 3e3c 3f68 5a3d 6391 ab3d
00000120: 2909 bf3d 70b0 d13d dfd7 8c3c 8698 e03c
00000130: ce26 673d ac6c 503d b25f d23c d96c 23bd
00000140: 701e 813d 5ff6 153e b1a0 ee3d 8b1b 253d
00000150: bd65 9a3d b8ca dd3b 3214 393c 793b c53d
00000160: b400 2e3c ab05 c6bb 7298 c63d 2256 e43d
00000170: 3df5 9a3d 5d8a d83d 6cfc 27bc 9d6b 123d
00000180: 56be 323b 87a9 4fbb 18a8 263c 9ac9 64bd
00000190: a374 2ebd 552c 9bba 7f64 bebc 4fc3 27bd
000001a0: e2fe 7f3d 04d8 a03d 752d 853d c11b cabc
000001b0: d063 873d 053c ce3d d06d 05bd ac8c a8bd
000001c0: c5a4 ee3d 5759 d33d 1796 98bc 2fe7 bdbc
000001d0: e41c b63c 2e7a 23bd be7e c23d ac89 73bd
000001e0: c8ff 3bbd 904f b03d 9687 f13d c437 713d
000001f0: bf1c febc dbd5 bcbd d017 b43d 4744 af3c
00000200: fa2f 4fbd e546 233d 35c2 cabb 43e3 553d
00000210: cc1b cd3d 3158 223d 6e92 df3c 4019 dd3c
00000220: c62f 40bc 2e95 f8bb 5179 863d 39b0 743d
00000230: dae9 533c f33a 8a3d a777 91bd 9fbe 7f3d
00000240: c64e 023c 9b90 b2bc 1d0b 073d 5e47 c13d
00000250: e910 a83d 6443 f9bc b228 38bc 0c6e 34bc
00000260: 933b d1bb 7067 40bd 9837 eb3b e92f 7138
00000270: b1cb 443c 896b 813c 3b4e 0e3d 8359 f9bb
00000280: 52cb 903d 9e53 9a3d 15bc 6f3d c7b9 b43b
00000290: 98b4 8d3d a5b9 ef3b 6fe2 8d3d 8bfb acbd
000002a0: 85ea bcbd 098d b03b 74ac 69bd ea1d 9c3d
000002b0: 9da9 2b3d 6898 0d3d 1f5a 1c3d 773b 9d3d
000002c0: 77db 253d ca09 38bd 3148 7c3d 27a3 393d
000002d0: de05 9b3d 52d3 31bc d1ec 993d af94 9c3d
000002e0: f937 193d 52dd 543c f375 cb3d 44fe 6f3d
000002f0: ac48 6d3d 2689 8dbd f258 7b3d fba9 913c
00000300: 2e64 c7bc ebeb 3c3d 96f5 273d 0ffa 093c
00000310: f3e0 163d 51f5 80bd 8a1c 9ab9 6d4e 00bd
00000320: 3da1 d63d 3c6a d73b 55a3 19bd 5a30 903c
00000330: 04ed a63b 9b83 aa3d 5d83 243c 3e85 a03c
00000340: 6b10 c0bc 048d ccbc 8710 b63d 0666 233d
00000350: 7c41 c33d a4a0 0d3d d417 b43c 5532 833c
00000360: 9c6f 73bd d020 db3d 2ffa 993d fd44 903d
00000370: ff9d f53c 70da f03c 715d 593d c2b6 133c
00000380: 8f9a 80bd f4ff 943d 4222 fa3c a40a c33c
00000390: a814 113c fa66 44bd 4271 853d b5f6 6a3d
000003a0: 3618 2fbd 4e88 cc3b 3e8f 80bd dc89 21bd
000003b0: 2943 26bd c74e 8dbc c7ef 3cbc 8465 70bd
000003c0: 323b af3d 0dc0 74bd 6de3 97bc ebee da3d
000003d0: 3270 d3bc 1e7f 1c3d 3b0e 1bbd 2c1b cebb
000003e0: b240 c9bb bfbb 813d 1420 a23b c380 7f3d
000003f0: 624b 16bd c8e9 8f3d 235f 723d ebdc a03d

bias_hh_l0 f4 [512]
0.061165415 0.04035116 0.07944892 0.09105876 0.100743935 0.0338701 0.017865008 -0.065818965
-0.010010436 -0.039911453 0.051746476 0.0471272 0.036872353 0.058946252 -0.022083962 0.06719654
0.0062382873 0.12589611 -0.04264119 0.0982804 0.03209068 0.08051769 0.0946698 0.09123242
0.04151408 0.09674754 0.077161565 -0.023349192 0.08581758 0.041230973 0.021105979 0.06360862
0.081296995 -0.019642655 -0.004250333 0.073387146 0.025792079 -0.005091283 0.08744671 -0.027842965
0.14130086 0.097412996 0.054930698 -0.015066898 0.060275637 -0.059407193 0.09811365 -0.0074618105
-0.03461992 0.10193033 -0.025645401 0.02994229 0.052394312 0.009487515 -0.052760437 -0.029075796
-0.013010258 -0.049622506 0.025016109 0.030493421 -0.046648398 -0.034353342 0.08957318 -0.0022942626
0.06865383 -0.012537441 -0.017651469 0.0033460534 0.02986836 0.06690552 0.0045563644 -1.190721e-05
0.027866816 -0.07084254 0.0045658452 -0.046483297 0.09882649 0.011376352 0.07828457 0.041138303
0.025749719 0.12001468 0.00026323303 -0.013646212 -0.035524245 0.01120026 0.06259892 0.02130394
0.1124361 0.020440176 0.09304204 -0.03404701 -0.0067133834 -0.00860922 0.073565364 -0.03370546
-0.04501267 0.061852068 0.046367705 -0.065360785 0.071056955 0.055482227 0.05642269 0.06150735
-0.0028988977 0.08368883 0.076719604 0.09728053 0.007406777 0.024188465 -0.051226985 -0.004121162
0.10306435 -0.028767623 0.038425773 0.07957679 -0.0206087 0.030325802 -0.023654874 0.09991382
-0.011139286 0.042981245 0.08987928 0.047363065 0.024109885 -0.0511965 -0.0051324978 0.104751855
-0.039376162 -0.019543866 0.08926385 -0.042816285 -0.04441395 -0.064805984 -0.032779586 0.032659344
-0.05028382 0.013028761 -0.013457038 0.10650269 0.056841932 -0.008159538 -0.026447201 0.10002341
0.03851037 -0.02614308 -0.048716597 -0.053093582 0.02424616 -0.064498216 0.021630138 0.08056421
0.0012353302 0.08457574 0.032124717 0.006957407 0.047736812 0.032886207 -0.0023218384 0.07268284
0.030016387 0.038470685 0.111354895 0.0042113317 -0.014145427 -0.020566642 0.016656194 -0.08345023
-0.07340419 0.05762747 0.10063311 0.042893883 -0.028136985 0.022491353 -0.040172294 0.058063693
0.047943607 0.04746556 0.095295556 -0.0035585596 0.11101243 0.066780135 -0.04800822 0.10899854
0.06260126 -0.045759812 0.09605398 0.031168869 0.02970218 0.062258232 -0.039929766 0.059505988
0.04612368 -0.008741478 -0.021879463 0.041096848 0.099945106 0.061448254 0.10102423 -0.07083827
-0.020956865 -0.045593645 -0.0013852393 0.06280315 -0.034525707 0.002886887 0.06886713 -0.0038107731
0.03174006 0.055797648 0.09364962 -0.028498854 0.04019965 -0.061506666 0.0101235295 -0.014906129
-0.07460163 0.08252074 -0.039629485 0.071941815 0.05444103 -0.0056201196 -0.060678676 -0.034542184
0.035000883 0.08182354 -0.027214095 0.005951539 0.018872865 -0.011742015 -0.05895691 -0.0078922985
0.0062185223 -0.09308779 0.0071550854 -0.043039076 0.06060653 -0.05159805 -0.043362286 0.015605256
0.056178235 -0.07815844 -0.032378778 -0.040673338 0.047991704 -0.045183036 0.08274311 0.010014609
0.05502427 0.017052632 0.016777141 -0.03337765 0.09740792 -0.00092595845 0.06309726 0.06027935
00000000: 9688 7a3d 4247 253d 1eb6 a23d 047d ba3d
00000010: d652 ce3d 60bb 0a3d a359 923c 18cc 86bd
00000020: d002 24bc 317a 23bd 1df4 533d 7308 413d
00000030: 7707 173d a071 713d 6de9 b4bc 579e 893d
00000040: 8c6a cc3b e9ea 003e 87a8 2ebd 3c47 c93d
00000050: 8471 033d 75e6 a43d 3de2 c13d 10d8 ba3d
00000060: ab0a 2a3d 9323 c63d e206 9e3d ce46 bfbc
00000070: 21c1 af3d cfe1 283d 72e6 ac3c 3c45 823d
00000080: 0a7f a63d a2e9 a0bc 6146 8bbb 004c 963d
00000090: e949 d33c c7d4 a6bb 4317 b33d ee16 e4bc
000000a0: 2cb1 103e 7780 c73d 03ff 603d 27db 76bc
000000b0: 96e3 763d f554 73bd cfef c83d 3482 f4bb
000000c0: 9ecd 0dbd d9c0 d03d 4e16 d2bc 8949 f53c
000000d0: 6b9b 563d 8671 1b3c 541b 58bd 5d30 eebc
000000e0: fa28 55bc f840 4bbd 95ee cc3c 57cd f93c
000000f0: 6412 3fbd 17b6 0cbd 2572 b73d 575b 16bb
00000100: 619a 8c3d d769 4dbc d099 90bc 7649 5b3b
00000110: 7eae f43c c305 893d 8e4d 953b 14c5 47b7
00000120: f348 e43c e515 91bd 169d 953b 4565 3ebd
00000130: 8b65 ca3d e163 3a3c a953 a03d a380 283d
00000140: 13f1 d23c 42ca f53d 8a02 8a39 5d94 5fbc
00000150: df81 11bd 4c81 373c dd33 803d 9a85 ae3c
00000160: e644 e63d 2872 a73c d38c be3d e174 0bbd
00000170: f1fb dbbb b00d 0dbc 70a9 963d bd0e 0abd
00000180: 355f 38bd 9858 7d3d 10ec 3d3d e0db 85bd
00000190: 4f86 913d 5541 633d 7b1b 673d 22ef 7b3d
000001a0: 6ffb 3dbb 0d65 ab3d 2b1f 9d3d 043b c73d
000001b0: 8cb4 f23b e326 c63c 63d3 51bd d00a 87bb
000001c0: 6713 d33d 14aa ebbc 5864 1d3d 28f9 a23d
000001d0: 94d3 a8bc d16d f83c dec7 c1bc 9e9f cc3d
000001e0: 8d81 36bc 1a0d 303d a112 b83d c6ff 413d
000001f0: 1882 c53c 6cb3 51bd 832e a8bb 2488 d63d
00000200: e648 21bd 751a a0bc f7cf b63d 2160 2fbd
00000210: 67eb 35bd 00b9 84bd e343 06bd cec5 053d
00000220: 68f6 4dbd 9676 553c e97a 5cbc 151e da3d
00000230: 16d3 683d 95af 05bc cda7 d8bc 13d9 cc3d
00000240: 0dbd 1d3d 032a d6bc 0e8b 47bd a878 59bd
00000250: e29f c63c a417 84bd b031 b13c d9fe a43d
00000260: ceea a13a 0c36 ad3d 3595 033d f6fa e33b
00000270: ad87 433d b0b3 063d fc29 18bb beda 943d
00000280: ede4 f53c 7093 1d3d 090e e43d 36ff 893b
00000290: 39c2 67bc 607b a8bc 9272 883c f4e7 aabd
000002a0: f054 96bd c80a 6c3d bb18 ce3d 7fb1 2f3d
000002b0: 897f e6bc c93f b83c b48b 24bd 32d4 6d3d
000002c0: 8460 443d 3f6b 423d 512a c33d b936 69bb
000002d0: 7c5a e33d 06c4 883d 44a4 44bd a03a df3d
000002e0: 1735 803d a46e 3bbd f3b7 c43d db55 ff3c
000002f0: fc51 f33c 7d02 7f3d 658d 23bd 8dbc 733d
00000300: 2fec 3c3d 6b38 0fbc 8f3c b3bc 2b55 283d
00000310: 05b0 cc3d 2ab1 7b3d cbe5 ce3d a813 91bd
00000320: bbad abbc 67c0 3abd eb90 b5ba f09e 803d
00000330: d46a 0dbd ed31 3d3b 360a 8d3d 2abe 79bb
00000340: dd01 023d 138c 643d 5fcb bf3d 6e76 e9bc
00000350: 63a8 243d 6aee 7bbd 29dd 253c d638 74bc
00000360: bdc8 98bd a200 a93d 8752 22bd 3b56 933d
00000370: 8ffd 5e3d fb28 b8bb 348a 78bd 1b7c 0dbd
00000380: 165d 0f3d 1a93 a73d 18f0 debc 2105 c33b
00000390: 449b 9a3c 9561 40bc cd7c 71bd b34e 01bc
000003a0: bfc4 cb3b d0a4 bebd 3575 ea3b be49 30bd
000003b0: 8e3e 783d 7a58 53bd a79c 31bd 30ad 7f3c
000003c0: 261b 663d 8811 a0bd 9c9f 04bd 1699 26bd
000003d0: f392 443d d911 39bd 3875 a93d 5114 243c
000003e0: 2161 613d f6b1 8b3c 3770 893c 01b7 08bd
000003f0: ce7d c73d 05bc 72ba 2339 813d 7be7 763d

weight f4 [128, 128]
0.026777295 0.044521324 0.074922994 0.10774006 -0.037975416 0.18431842 -0.13124667 -0.12923548
0.09840283 -0.112594634 -0.056589626 -0.06882131 0.06305386 0.24446192 0.06755584 -0.008004921
0.0031259214 0.077755846 0.17927726 -0.09644743 0.021550016 -0.08881232 -0.13352834 -0.04642064
-0.05635269 0.022368252 0.07811189 -0.036814388 0.00654008 0.019686772 -0.08691593 -0.043762203
-0.1063241 0.09485463 0.10442777 -0.24190073 -0.14003845 -0.010812958 -0.11704973 0.012626733
0.00922686 0.09219906 -0.013822491 0.08472817 -0.015183424 -0.093570344 0.04343155 -0.04751684
0.045238275 -0.0706067 -0.022951663 0.07386332 -0.1105696 0.03365574 0.063151754 -0.10392072
-0.04267819 -0.014052278 -0.02437671 0.004416278 -0.116654 -0.11164642 0.02705046 -0.089703135
-0.15398172 -0.0751656 -0.025407806 -0.0072608814 0.053949103 0.041001584 -0.09160835 0.013607088
0.2015901 -0.010831515 -0.09265815 0.03743565 0.15395008 -0.053956293 0.046003643 -0.15277064
-0.034755334 0.033103343 0.016530171 -0.014983843 -0.03652145 0.039138395 -0.14732106 0.03668942
-0.044845752 -0.07062616 -0.031415284 0.09555159 -0.030266242 -0.03901576 0.011416733 0.076808006
0.030479666 -0.020079445 -0.061585274 0.031178022 -0.09577562 -0.084619746 -0.06638167 -0.080512695
0.07668366 0.05611545 0.020272061 -0.11918291 0.033047736 0.0764342 -0.0871271 -0.033243336
0.042030416 0.06850259 -0.049945727 0.030283885 0.050798338 0.14140694 -0.05973007 0.047675997
0.079172775 0.080804706 0.034739472 -0.02240652 0.12905492 0.10215644 0.08035627 0.09083543
-0.06989595 -0.110313945 -0.15612184 -0.013498427 0.0024060716 -0.09001628 0.12374014 0.15912145
-0.13826987 0.07364437 -0.0069728605 0.00089797867 -0.104997724 -0.17076479 -0.025633717 0.12280676
0.14871822 -0.045489315 -0.07259491 0.16212238 0.12383055 0.011521418 0.10368161 -0.08685124
-0.11754765 0.060552213 -0.13862438 0.054716766 0.14188607 0.09753923 0.015992474 -0.064617604
0.036384087 -0.19357972 -0.14599541 0.12068207 0.14735067 0.04300836 0.022231502 0.09696458
-0.10805386 -0.11202398 0.04533454 0.00473442 -0.009468992 0.08307111 0.037658434 -0.019614244
0.008428584 0.026300726 0.16150624 -0.027058283 0.13735883 0.01204986 -0.022791917 0.047963466
0.0232226 -0.018753247 -0.06103726 -0.048108928 0.020457866 0.045174852 0.06270587 0.083627515
0.047121648 0.1172606 0.0013564882 0.031897187 -0.093086615 0.03908542 0.1200249 -0.079667084
-0.14895763 -0.073617354 0.005044965 0.06331982 -0.1088682 -0.0053322213 0.0008843571 0.028066669
0.12499081 -0.02268146 -0.071207784 -0.07843922 -0.081520095 0.06499444 0.06474558 -0.030841863
0.04535332 0.02427843 0.030963866 -0.15982799 -0.118566126 0.003317311 -0.02544509 -0.07353868
-0.036462355 0.054513708 0.03198576 -0.0027086807 0.01570113 0.0681438 0.10384194 0.108199544
0.016841564 -0.14120704 0.018495522 0.12930563 -0.100563936 -0.12577584 0.0019292407 0.019879043
0.08348941 -0.0076804245 -0.08904624 -0.14415194 0.0018591658 -0.1519537 -0.041276347 -0.055676267
-0.051748376 0.02055831 -0.03487038 0.09981676 -0.046260767 -0.14893563 -0.052417714 0.03261326
00000000: 0f5c db3c fe5b 363d 3a71 993d d2a6 dc3d
00000010: 1c8c 1bbd f8bd 3c3e 8765 06be 4e56 04be
00000020: 6c87 c93d 0498 e6bd 86ca 67bd 30f2 8cbd
00000030: 6222 813d 3a54 7a3e b75a 8a3d 1227 03bc
00000040: 42dc 4c3b 753e 9f3d 7594 373e 3b86 c5bd
00000050: a989 b03c 3ce3 b5bd a7bb 08be 9223 3ebd
00000060: 14d2 66bd a03d b73c 20f9 9f3d afca 16bd
00000070: 2b4e d63b 2746 a13c fb00 b2bd ff3f 33bd
00000080: 73c0 d9bd 2543 c23d 3ade d53d d3b4 77be
00000090: 3d66 0fbe d528 31bc c5b7 efbd 5be0 4e3c
000000a0: 412c 173c dcd2 bc3d bb77 62bc f685 ad3d
000000b0: e5c3 78bc cfa1 bfbd 48e5 313d 05a1 42bd
000000c0: c54b 393d 3f9a 90bd 2005 bcbc a745 973d
000000d0: 5072 e2bd 9ada 093d b555 813d 63d4 d4bd
000000e0: 53cf 2ebd 873b 66bc abb1 c7bc 6db6 903b
000000f0: 4be8 eebd e1a6 e4bd ed98 dd3c 47b6 b7bd
00000100: 62ad 1dbe 6cf0 99bd 0824 d0bc b0ec edbb
00000110: bcf9 5c3d 47f1 273d 299d bbbd 43f0 5e3c
00000120: a36d 4e3e ab76 31bc 8ec3 bdbd 2056 193d
00000130: 17a5 1d3e 4601 5dbd 516e 3c3d e86f 1cbe
00000140: 9c5b 0ebd 5f97 073d 486a 873c cb7e 75bc
00000150: 8497 15bd 954f 203d 55db 16be a547 163d
00000160: 2eb0 37bd 73a4 90bd 50ad 00bd 8db0 c33d
00000170: e9f0 f7bc fdce 1fbd 400d 3b3c 844d 9d3d
00000180: 7eb0 f93c a67d a4bc d740 7cbd 0d69 ff3c
00000190: 0226 c4bd 1e4d adbd 1df3 87bd d7e3 a4bd
000001a0: 530c 9d3d 50d9 653d 9811 a63c 2b16 f4bd
000001b0: 105d 073d 8989 9c3d b16f b2bd 2a2a 08bd
000001c0: 1628 2c3d 164b 8c3d e493 4cbd e915 f83c
000001d0: eb11 503d fbcc 103e 85a7 74bd e847 433d
000001e0: 5625 a23d f07c a53d fa4a 0e3d e18d b7bc
000001f0: f926 043e 6537 d13d d491 a43d ed07 ba3d
00000200: 9c25 8fbd 47ec e1bd 67de 1fbe 8228 5dbc
00000210: 2faf 1d3b 755a b8bd 786b fd3d bcf0 223e
00000220: 9e96 0dbe dcd2 963d 987c e4bb 5466 6b3a
00000230: 0c09 d7bd f7dc 2ebe cdfd d1bc 1c82 fb3d
00000240: 9749 183e 0153 3abd a4ac 94bd 6903 263e
00000250: df9a fd3d 54c4 3c3c 0657 d43d 10df b1bd
00000260: d3bc f0bd 9905 783d 8df3 0dbe b01e 603d
00000270: 954a 113e a6c2 c73d a602 833c 3c56 84bd
00000280: 7b07 153d c339 46be d27f 15be 2928 f73d
00000290: 18e3 163e 8929 303d d71e b63c 5e95 c63d
000002a0: 584b ddbd d46c e5bd b6b0 393d 3223 9b3b
000002b0: d523 1bbc 3021 aa3d bb3f 1a3d 0dae a0bc
000002c0: 0b18 0a3c 9f74 d73c e461 253e 55a9 ddbc
000002d0: cba7 0c3e c76c 453c 1db6 babc 5775 443d
000002e0: 523d be3c 69a0 99bc 3502 7abd de0d 45bd
000002f0: 4197 a73c 4409 393d ef6b 803d e744 ab3d
00000300: a102 413d 5326 f03d 31cc b13a a0a6 023d
00000310: 32a4 bebd 0918 203d 9dcf f53d 7f28 a3bd
00000320: 5988 18be b2c4 96bd 3c50 a53b d2ad 813d
00000330: 4af6 debd eab9 aebb 33d4 673a 12ec e53c
00000340: 2ffb ff3d 78ce b9bc 63d5 91bd bea4 a0bd
00000350: 02f4 a6bd ce1b 853d 5599 843d 13a8 fcbc
00000360: 67c4 393d 8fe3 c63c efa7 fd3c f3a9 23be
00000370: ccd2 f2bd 3e67 593b 3972 d0bc 739b 96bd
00000380: 8d59 15bd c449 5f3d 8003 033d 1f84 31bb
00000390: a89f 803c fa8e 8b3d 15ab d43d b997 dd3d
000003a0: 52f7 893c 9498 10be ec83 973c b268 043e
000003b0: 77f4 cdbd 62cb 00be 93de fc3a 60d9 a23c
000003c0: 7ffc aa3d 12ac fbbb e05d b6bd 919c 13be
000003d0: 41af f33a c099 1bbe 6311 29bd cc0c 64bd
000003e0: 1bf6 53bd e769 a83c 3ed4 0ebd bb6c cc3d
000003f0: ee7b 3dbd 9582 18be f5b3 56bd 7b95 053d

bias f4 [128]
0.015508783 -0.036392324 0.014187683 -0.0018060502 0.040041618 -0.014221775 -0.054335464 -0.0076023256
0.024004005 0.018068409 -0.010746916 0.07978363 0.053686365 -0.07593914 0.032485195 -0.0064943805
0.035423953 -0.04449306 -0.0071659843 0.02047334 -0.012613791 0.04639011 0.07853477 -0.012735986
0.078620516 0.03758307 -0.028526343 0.0005208685 -0.022135798 -0.077448025 0.08079794 -0.040960006
-0.07410763 -0.07271539 -0.03759737 0.049877815 0.040619284 0.031202568 -0.026330814 -0.0019850153
0.01784833 -0.07820293 0.028245747 -0.024231045 -0.077487774 -0.054943465 -0.010268909 -0.03639459
0.042442273 -0.012152157 0.075932935 -0.067196324 -0.032656495 -0.0480724 -0.06539816 0.033788133
0.04105539 -0.06308115 0.039314426 0.034144584 0.074270256 -0.0651272 -0.07265176 0.018336205
-0.024702601 0.01564577 -0.047252603 0.025129758 0.0024597058 0.002793662 0.07969473 -0.08672152
0.00016649145 -0.038195353 -0.010833623 -0.024559243 0.07688535 -0.0033669455 -0.05661048 -0.028756516
0.07610253 -0.039105747 0.021008687 0.033677142 -0.018936343 -0.080867186 -0.053888965 0.033466905
0.060263198 0.0796064 -0.011934783 0.036357384 0.033143558 -0.034977067 0.072513096 0.08820378
0.006668204 0.07536088 -0.050117757 -0.06385327 0.074994564 0.054328244 0.04053959 -0.07955122
0.0019794167 0.012994233 0.077267304 0.027089747 -0.068802364 -0.047996983 -0.07150195 -0.092551604
0.033578742 0.015353542 -0.086964995 -0.07903278 -0.018135967 -0.048705198 -0.03630189 -0.052357852
-0.0100980615 -0.0054158317 0.04751715 -0.0024622853 -0.036856808 0.04639712 -0.07522205 -0.07604899
00000000: 8d18 7e3c 1e10 15bd 7573 683c fdb8 ecba
00000010: ae02 243d 7302 69bc dd8e 5ebd ee1c f9bb
00000020: 0ca4 c43c 3304 943c d513 30bc 9a65 a33d
00000030: 3ce6 5b3d fb85 9bbd 320f 053d d0ce d4bb
00000040: b518 113d 5b3e 36bd a2d0 eabb b5b7 a73c
00000050: 13aa 4ebc 8e03 3e3d d6d6 a03d 99aa 50bc
00000060: cb03 a13d b5f0 193d 14b0 e9bc e58a 083a
00000070: 2256 b5bc 129d 9ebd 6479 a53d aec5 27bd
00000080: bec5 97bd ceeb 94bd b3ff 19bd ae4c 4c3d
00000090: 6860 263d 879c ff3c b8b3 d7bc 0817 02bb
000000a0: a936 923c dc28 a0bd a063 e73c 2f80 c6bc
000000b0: e9b1 9ebd 660c 61bd ed3e 28bc 7e12 15bd
000000c0: f3d7 2d3d d719 47bc ba82 9b3d 3a9e 89bd
000000d0: d1c2 05bd 91e7 44bd 78ef 85bd 6d65 0a3d
000000e0: b229 283d b130 81bd 2a08 213d 31db 0b3d
000000f0: 011b 983d 6961 85bd 72ca 94bd cf35 963c
00000100: 1c5d cabc 8f2b 803c f28b 41bd ecdc cd3c
00000110: 0433 213b df15 373b fe36 a33d 0d9b b1bd
00000120: 3594 2e39 bb72 1cbd 827f 31bc 7730 c9bc
00000130: 1176 9d3d f9a7 5cbb 64e0 67bd c992 ebbc
00000140: a5db 9b3d 592d 20bd 691a ac3c 0bf1 093d
00000150: 6420 9bbc b29d a5bd adba 5cbd 9814 093d
00000160: 8bd6 763d ae08 a33d 1c8a 43bc 7beb 143d
00000170: 8ac1 073d 1d44 0fbd bf81 943d 2fa4 b43d
00000180: f380 da3b ce56 9a3d 4748 4dbd 81c5 82bd
00000190: c096 993d 4b87 5e3d d70c 263d c0eb a2bd
000001a0: 1ab9 013b c3e5 543c 523e 9e3d 51eb dd3c
000001b0: 41e8 8cbd 7c98 44bd 9d6f 92bd b28b bdbd
000001c0: dd89 093d 6c8d 7b3c b41a b2bd f0db a1bd
000001d0: e191 94bc 1a7f 47bd 4ab1 14bd 3075 56bd
000001e0: 5772 25bc 4a77 b1bb 58a1 423d 4b5e 21bb
000001f0: 2af7 16bd e80a 3e3d 050e 9abd 93bf 9bbd

weight f4 [3, 256]
-0.0838598 0.11499361 0.12019038 -0.12035356 0.10788808 0.027874947 -0.0054183616 -0.007597815
-0.11563219 -0.083092965 -0.090576075 0.021722622 -0.12977685 -0.06398503 0.031272005 -0.14111017
0.007699107 -0.09714594 -0.0983857 0.037237838 -0.087820776 0.1665508 0.10146996 -0.16152303
0.0855189 0.26181498 -0.03254726 0.085384384 0.10474338 -0.0037632503 0.13337857 -0.10541559
-0.06262394 0.0013146448 -0.09200902 0.14745724 -0.05480034 -0.078715615 -0.07150862 0.19245021
0.045645505 0.08765256 -0.0039694337 0.12255071 -0.097048 -0.079761475 0.09761696 -0.03586066
-0.035008553 -0.096973576 0.12014687 0.08602331 0.03215844 -0.050331376 0.21535383 -0.0017414781
-0.006022072 -0.055638123 -0.1136425 -0.090083234 -0.10168492 -0.04943405 -0.07215041 0.0018440068
-0.0009003785 0.18998824 -0.056217227 -0.105070494 -0.07124285 -0.052169643 0.010416093 0.0075982553
-0.048745736 -0.15291007 -0.07591488 0.036127936 0.13543282 -0.036353596 -0.09047765 -0.103829645
-0.045836985 -0.058007937 0.020704264 -0.049957965 0.06803164 0.10282192 0.06002013 0.039453655
0.0659051 -0.06789867 0.009795511 0.040170267 0.104901455 0.11348945 0.12366152 -0.04791498
-0.18121994 0.13130678 0.07517305 -0.035152342 -0.15006311 0.1243637 0.11091594 -0.07892165
-0.024369461 0.023885442 -0.04574779 0.12236369 -0.13396731 0.07236324 0.29540333 0.040209427
-0.018443467 -0.017653601 0.047357753 0.13802007 -0.044119906 0.1634351 -0.13188943 0.10439898
0.096841216 0.12255562 0.22766548 -0.035129346 0.101536654 0.18588139 0.15275763 -0.005667485
-0.10393141 0.067415155 -0.07733365 -0.12383923 -0.099250294 -0.12192451 0.07850742 0.049486395
-0.058041453 -0.03980759 -0.0012582712 -0.102814585 -0.09638241 -0.10765654 -0.17260571 0.08363061
0.35303617 0.040170852 0.003852647 0.10484882 0.039154124 0.005760459 -0.054714214 0.014128641
-0.078682415 0.10572044 -0.026664117 0.097198926 0.11557505 0.022806687 -0.11477369 0.072205566
-0.08325071 0.0024245302 -0.14638056 0.20049034 0.11088741 0.05797102 -0.0115577355 0.063985765
-0.1032271 -0.039323 0.10795849 0.06547314 -0.110014684 0.16524257 -0.08083847 -0.035513867
0.042329058 -0.08167579 0.097737566 0.04405396 0.029412627 0.21658254 0.05544908 -0.007963762
-0.10735291 -0.026462419 0.0066289287 -0.021541014 0.077024415 0.070339054 -0.0342771 0.056458037
0.14573333 0.048142962 -0.049939334 -0.048140857 -0.13597868 -0.06468149 0.040474094 0.0027885684
-0.16286407 0.015967332 -0.069743566 0.1711798 -0.06098253 -0.13364872 -0.07274782 -0.11460058
0.11931138 -0.17763911 -0.15496826 0.30580762 -0.09063365 0.11311627 0.10891005 -0.34485728
-0.08434987 0.06269093 0.104138315 0.02592191 -0.10398309 0.077654906 -0.0022449063 -0.14152643
-0.046388466 0.042354394 0.08007 -0.033811897 -0.1401505 0.109888114 0.07415865 0.06660889
0.11456078 -0.17617702 -0.2580956 0.058680117 0.13630027 -0.15683773 -0.087339826 0.0896288
-0.07837406 -0.07428497 -0.0866821 -0.096638665 0.18107514 -0.18660955 0.05492589 0.09516483
0.17277217 -0.041771896 0.12629941 -0.07885622 -0.021451738 0.13083124 0.15497321 -0.039717127
00000000: b0be abbd c581 eb3d 6026 f63d ed7b f6bd
00000010: 6df4 dc3d 005a e43c 838c b1bb 17f7 f8bb
00000020: 92d0 ecbd a52c aabd f37f b9bd a4f3 b13c
00000030: 39e4 04be 950a 83bd 1317 003d 2f7f 10be
00000040: ca48 fc3b 73f4 c6bd 717e c9bd b486 183d
00000050: 61db b3bd 4b8c 2a3e 7bcf cf3d 4b66 25be
00000060: 8824 af3d 9d0c 863e 4750 05bd 02de ae3d
00000070: b283 d63d dda0 76bb 6494 083e 21e4 d7bd
00000080: fb40 80bd 2950 ac3a 3a6f bcbd 08ff 163e
00000090: 5276 60bd a735 a1bd 1d73 92bd ab11 453e
000000a0: c8f6 3a3d 2f83 b33d 0612 82bb defb fa3d
000000b0: 1ac1 c6bd fc59 a3bd 67eb c73d a1e2 12bd
000000c0: 2165 0fbd 159a c6bd 900f f63d fd2c b03d
000000d0: 92b8 033d 4628 4ebd b785 5c3e 4f42 e4ba
000000e0: cd54 c5bb cde4 63bd 66bd e8bd 8f7d b8bd
000000f0: 2f40 d0bd 5c7b 4abd 98c3 93bd 9ab2 f13a
00000100: 6107 6cba 478c 423e 0944 66bd 332f d7bd
00000110: c5e7 91bd d6af 55bd 43a8 2a3c c9fa f83b
00000120: 9ca9 47bd 7594 1cbe 4379 9bbd e3fa 133d
00000130: e7ae 0a3e 82e7 14bd 594c b9bd a3a4 d4bd
00000140: 90bf 3bbd bb99 6dbd fd9b a93c b9a0 4cbd
00000150: 2c54 8b3d 4c94 d23d abd7 753d 289a 213d
00000160: 41f9 863d 750e 8bbd 5a7d 203c 9489 243d
00000170: 93d6 d63d 286d e83d 4042 fd3d 8042 44bd
00000180: b891 39be 4975 063e 54f4 993d e7fb 0fbd
00000190: 25aa 19be 65b2 fe3d e527 e33d ada1 a1bd
000001a0: 77a2 c7bc 67ab c33c 0962 3bbd d099 fa3d
000001b0: ba2e 09be 2e33 943d 1b3f 973e a4b2 243d
000001c0: c116 97bc 499e 90bc 34fa 413d 2255 0d3e
000001d0: 13b7 34bd 885b 273e 060e 07be 22cf d53d
000001e0: b054 c63d 71fe fa3d 2421 693e cae3 0fbd
000001f0: 73f2 cf3d b157 3e3e 7f6c 1c3e 4fb6 b9bb
00000200: fed9 d4bd f510 8a3d 1b61 9ebd 6c9f fdbd
00000210: bd43 cbbd 8fb3 f9bd 80c8 a03d 3fb2 4a3d
00000220: e0bc 6dbd 490d 23bd 93ec a4ba 7490 d2bd
00000230: 2464 c5bd 087b dcbd 8dbf 30be 8646 ab3d
00000240: 28c1 b43e 318a 243d b17c 7c3b faba d63d
00000250: 1360 203d 3cc2 bc3b 031c 60bd d17b 673c
00000260: 3f24 a1bd f583 d83d b56e dabc 3b10 c73d
00000270: 9db2 ec3d 17d5 ba3c 780e ebbd 83e0 933d
00000280: 597f aabd dee4 1e3b c9e4 15be 574d 4d3e
00000290: f018 e33d 0573 6d3d a85c 3dbc f80a 833d
000002a0: bb68 d3bd 2711 21bd 5719 dd3d c816 863d
000002b0: 614f e1bd 5935 293e a48e a5bd fd76 11bd
000002c0: 3c61 2d3d a345 a7bd a22a c83d ed71 343d
000002d0: c0f2 f03c d0c7 5d3e 931e 633d 707a 02bc
000002e0: d8db dbbd b7c7 d8bc 7c37 d93b c876 b0bc
000002f0: fabe 9d3d ec0d 903d 2566 0cbd 8b40 673d
00000300: 1e3b 153e 8e31 453d 308d 4cbd 592f 45bd
00000310: ff3d 0bbe bb77 84bd 2ac8 253d 6ac0 363b
00000320: d7c5 26be eccd 823c b7d5 8ebd c249 2f3e
00000330: d1c8 79bd 36db 08be cffc 94bd b5b3 eabd
00000340: 8659 f43d 07e7 35be 00b0 1ebe d192 9c3e
00000350: 239e b9bd 81a9 e73d 3b0c df3d 2291 b0be
00000360: a0bf acbd 1a64 803d 7846 d53d 2f5a d43c
00000370: 16f5 d4bd 8909 9f3d 471f 13bb 4eec 10be
00000380: d501 3ebd cd7b 2d3d bdfb a33d 587e 0abd
00000390: 9d83 0fbe 050d e13d 7ee0 973d 3e6a 883d
000003a0: d89e ea3d c067 34be 1b25 84be 905a 703d
000003b0: 4c92 0b3e 129a 20be 39df b2bd 4e8f b73d
000003c0: 9482 a0bd b822 98bd 6386 b1bd 7eea c5bd
000003d0: c36b 393e 9316 3fbe f8f9 603d c7e5 c23d
000003e0: 30eb 303e 0219 2bbd a254 013e 5f7f a1bd
000003f0: 8ebb afbc a0f8 053e 4cb1 1e3e 6dae 22bd

bias f4 [3]
-0.09657893 -0.023969468 -0.006484885
00000000: 2dcb c5bd 9e5b c4bc 287f d4bb
